…
classification_layers = [
    Dense(512),
    Activation('relu'),
    Dense(nb_classes),
    Activation('softmax')
]
# create complete model
model = Sequential(feature_layers + classification_layers)
model.compile(loss='categorical_crossentropy', optimizer="adadelta", 
metrics=['accuracy'])
# print model layer summary
print(model.summary())
#----output----
__________________________________________________________________________
Layer (type)                  Output Shape          Param #     Connected to
==========================================================================
convolution2d_1 (Convolution2D)  (None, 10, 30, 30) 280          
convolution2d_input_1[0][0]
__________________________________________________________________________
activation_1 (Activation)        (None, 10, 30, 30) 0  convolution2d_1[0][0]
__________________________________________________________________________
convolution2d_2 (Convolution2D)  (None, 10, 28, 28) 910   activation_1[0][0]
__________________________________________________________________________
activation_2 (Activation)        (None, 10, 28, 28) 0  convolution2d_2[0][0]
__________________________________________________________________________
maxpooling2d_1 (MaxPooling2D)    (None, 10, 14, 14) 0     activation_2[0][0]
__________________________________________________________________________
flatten_1 (Flatten)              (None, 1960) 0         maxpooling2d_1[0][0]
__________________________________________________________________________
dense_1 (Dense)                  (None, 512) 1004032         flatten_1[0][0]
_________________________________________________________________________
activation_3 (Activation)        (None, 512) 0                 dense_1[0][0]
_______________________________________________________________________
dense_2 (Dense)                  (None, 10) 5130          activation_3[0][0]
__________________________________________________________________________
activation_4 (Activation)        (None, 10) 0                  dense_2[0][0]
=========================================================================
Total params: 1010352
Chapter 6 ■ Step 6 – Deep anD reinforCement Learning
324
# fit model
model.fit(X_train, Y_train, batch_size=batch_size, nb_epoch=nb_epoch, 
validation_data=(X_test, Y_test))
#----output----
Train on 50000 samples, validate on 10000 samples
Epoch 1/4
83s - loss: 1.9102 - acc: 0.3235 - val_loss: 1.5988 - val_acc: 0.4268
…
    Dropout(0.25),
    Flatten(),
]
Chapter 6 ■ Step 6 – Deep anD reinforCement Learning
330
classification_layers = [
    Dense(128),
    Activation('relu'),
    Dropout(0.5),
    Dense(nb_classes),
    Activation('softmax')
]
# create complete model
model = Sequential(feature_layers + classification_layers)
print(model.summary())
#----output----
__________________________________________________________________________
Layer (type)                     Output ShapeParam #     Connected to
==========================================================================
convolution2d_1 (Convolution2D)  (None, 5, 26, 26) 50   
convolution2d_input_1[0][0]
__________________________________________________________________________
activation_1 (Activation)        (None, 5, 26, 26) 0   convolution2d_1[0][0]
__________________________________________________________________________ 
convolution2d_2 (Convolution2D)  (None, 5, 24, 24) 230 activation_1[0][0]
__________________________________________________________________________ 
activation_2 (Activation)        (None, 5, 24, 24) 0   convolution2d_2[0][0]
__________________________________________________________________________
maxpooling2d_1 (MaxPooling2D)    (None, 5, 12, 12) 0   activation_2[0][0]
__________________________________________________________________________
dropout_1 (Dropout)              (None, 5, 12, 12) 0   maxpooling2d_1[0][0]
__________________________________________________________________________
flatten_1 (Flatten)              (None, 720) 0         dropout_1[0][0]
__________________________________________________________________________
dense_1 (Dense)                  (None, 128) 92288     flatten_1[0][0]
__________________________________________________________________________
activation_3 (Activation)        (None, 128) 0         dense_1[0][0]
__________________________________________________________________________
dropout_2 (Dropout)              (None, 128) 0         activation_3[0][0]
__________________________________________________________________________
dense_2 (Dense)                  (None, 10) 1290       dropout_2[0][0]
__________________________________________________________________________
activation_4 (Activation)        (None, 10) 0          dense_2[0][0]
==========================================================================
Total params: 93858
model.fit(X_train, Y_train, nb_epoch=nb_epoch, batch_size=256, 
verbose=2,  validation_split=0.2)
#----output----
Train on 48000 samples, validate on 12000 samples
Epoch 1/5
Chapter 6 ■ Step 6 – Deep anD reinforCement Learning
331
24s - loss: 0.9369 - acc: 0.6947 - val_loss: 0.2509 - val_acc: 0.9260
…
